encoder_only.pth (torch, 2711 bytes, 4 tensors)

rec_enc1.weight_ih_l0 f4 [24, 1]
00000000: 141a 82be 8241 833d 20b2 1abe 3480 f8bd
00000010: 569f 9e3e 6498 7fbc fe32 72bb 5c57 45bd
00000020: a657 253e 8453 b3be 9913 6dbc 9b31 d53b
00000030: 3465 41be 9ca4 a7bd c3ad a2bd ae38 74be
00000040: bbf6 f13d 3ec0 1c3d d437 b6be 6536 533e
00000050: 2f94 b83e ef34 8e3e c3c1 f23d 74f2 5d3d
-0.2541052 0.06408979 -0.15107012 -0.12133828 0.3098094 -0.015600298 -0.0036956663 -0.048179016
0.16146716 -0.35024655 -0.0144700045 0.0065061576 -0.18886262 -0.081856936 -0.07943299 -0.23849747
0.11814638 0.038269274 -0.35589468 0.20626219 0.36050555 0.2777476 0.11853363 0.0541863

rec_enc1.weight_hh_l0 f4 [24, 8]
00000000: 28e6 32be 3f99 77be bfee fe3d 31e2 7dbe
00000010: 01fe 1bbe 7543 1ebe 1fc3 7cbe d06c 00be
00000020: 16dc b03d aabb 31be 0785 55be 3f1f 293e
00000030: f6a2 85be aedf a93e d8ed 633e e584 89be
00000040: 2a48 16be 2d1f a5be de00 d63e b0ec bebd
00000050: 1027 91be d727 693d 9fc0 453e b667 3abe
00000060: b83d d33d 3b6f 813e ffae 06be cade 933d
00000070: 8156 a9be b17c 5fbe e053 9d3c d084 1fbd
00000080: 8764 29be 634c d2be 42d2 af3e cfc7 363d
00000090: bd84 063e 7671 613d 5563 5d3e 2ea6 85bc
000000a0: b2c6 d6bd 7236 e73d 7257 b43d f0cb 923e
000000b0: 81e6 c83e b521 7ebd d2eb 633e c2cc bd3d
000000c0: 97f4 f73d 6da5 0f3e 3e07 503d 297d 01be
000000d0: 17fd 963e 4be7 3f3e ac55 d53d 7783 ac3e
000000e0: 28f1 29be 7b47 adbe e56b 393e 4c27 50bd
000000f0: 00ca 5d3e 231e 8c3e f1d8 c03d 3a73 37bd
00000100: 06de d03e 781b 0b3e a282 67be 0932 a4be
00000110: e907 a1be 2420 ca3e 4e7f b33d 268b d13d
00000120: af48 94be 6561 8abe 868f 363e 2ced 31be
00000130: 272d 113e 89fa 90bd 1e0a bfbe 2ac5 753e
00000140: 5cdc ad3d c249 2cbe 4467 9ebd 0114 4dbd
00000150: b342 843e e0e2 783e 598b 39be 121a b93e
00000160: cc18 3bbe 4e26 b33e ca36 013e 30ba ae3e
00000170: 4541 81be d2c2 8d3e ab1e c2bd ab8a 20bc
00000180: 0ad4 253d c579 b5be 4f33 10bd 5404 febd
00000190: fe9b 4a3e 10f3 28bd 3d7a f43c f8d5 d0bd
000001a0: 4aa4 3fbd 1d51 f3bd 8e3f 6dbe f632 2c3d
000001b0: dd35 7dbc 9eac c9be 11dc e2bc 8b8f 22be
000001c0: edc8 b5be 0e6b cebe cc44 4ebe 1e02 6dbe
000001d0: 14ab 333e 20c7 60be b9f5 b0be 5437 4abc
000001e0: 8974 97bc 25ab b93d c3d4 153e 0dfb 43be
000001f0: b478 e8bd 19f5 66be 75cb 813e 5f0d dbbd
00000200: c126 babc 5675 9f3e 2b92 6abd caea b83e
00000210: 3f30 7dbe 5bba 8b3e de3c a33e 80ef 87be
00000220: 9524 ddbc 0e21 3f3e a281 15be c257 05be
00000230: a617 383e 1e8f 2d3e df75 133c 9bb3 173d
00000240: 4af6 7abd 0f7f 88be 556f 84be 6451 86bd
00000250: 6b18 233e f1aa 8ebe 17a7 3bbd 2da0 b4be
00000260: 237b 743e befb f73d f743 c1bd 5adc f43c
00000270: 80f1 6b3e 53e3 c93c f506 cc3e e29a e0bc
00000280: 5353 81be d526 373e bc68 e63c 2f52 c93e
00000290: 536c 65be 5fe8 683e 8aab d1bd dc64 9fbe
000002a0: 32a7 86be d365 03bb fc18 753e f10e 95be
000002b0: 1dfa 103e 19a7 383e 6b6c 0fbe c50f 0b3c
000002c0: 1ef8 6a3d d946 803e 11be fe3d 541e 633e
000002d0: 4caf a4bd 4e63 173e de84 5ebe d85d 9abe
000002e0: 920e 943e 0953 473d b74f d4be 9665 703e
000002f0: 7bf3 99bb f383 653e 2ce3 f43d c56f 153e
-0.1747061 -0.24179552 0.12447881 -0.24793316 -0.15233614 -0.1545542 -0.24683808 -0.12541509
0.08635728 -0.17356744 -0.20851527 0.16515826 -0.26100892 0.33178467 0.22258699 -0.26859203
-0.14675966 -0.32250348 0.41797537 -0.09322488 -0.28350115 0.05692276 0.1931176 -0.18203625
0.10314506 0.25280175 -0.13152693 0.07220228 -0.3307381 -0.2182491 0.019205034 -0.03894502
-0.16542254 -0.41073903 0.343401 0.044624146 0.13136573 0.055039845 0.21619923 -0.016314592
-0.10487117 0.112896815 0.08805741 0.28671217 0.3923836 -0.062043864 0.22257927 0.0926757
0.12107199 0.14027949 0.050788157 -0.12645401 0.29489967 0.18740575 0.10416731 0.3369405
-0.165959 -0.33843598 0.18107565 -0.050818726 0.21659088 0.27366742 0.09416378 -0.044787623
0.4079439 0.13584697 -0.22608426 -0.32069424 -0.31451347 0.39477646 0.08764516 0.102316186
-0.28961703 -0.2702743 0.17828187 -0.1737563 0.1417738 -0.07079036 -0.37312406 0.24000993
0.08489296 -0.16825011 -0.0773454 -0.050067905 0.25832137 0.24305296 -0.18119563 0.36152703
-0.18271178 0.34990162 0.12618557 0.34126425 -0.2524511 0.276877 -0.09478506 -0.009798686
0.04048542 -0.35444465 -0.03520518 -0.12403169 0.19786069 -0.041247427 0.029843444 -0.10197061
-0.046787538 -0.118807055 -0.23168775 0.042040788 -0.015454737 -0.3938951 -0.027692826 -0.1587507
-0.35504857 -0.4031605 -0.20143431 -0.23145339 0.1754573 -0.2195096 -0.34562472 -0.012342293
-0.018488185 0.09065846 0.14631943 -0.19138737 -0.11351147 -0.22554435 0.25350538 -0.1069591
-0.022723557 0.31144208 -0.057268303 0.3611663 -0.24725436 0.27290615 0.31882375 -0.26549911
-0.026994983 0.18664953 -0.14600232 -0.13021758 0.17977771 0.16949126 0.009000271 0.03703652
-0.061270036 -0.26659438 -0.2586619 -0.06558493 0.15927283 -0.27864793 -0.045813646 -0.35278454
0.23875098 0.12108563 -0.094367914 0.029890228 0.23041344 0.02464453 0.39849058 -0.027417604
-0.25258884 0.17885907 0.028126113 0.39320514 -0.22404604 0.22744893 -0.102377966 -0.31131637
-0.26299435 -0.0020049706 0.23935312 -0.29112962 0.1415791 0.18032493 -0.14006202 0.0084876465
0.05736553 0.25054052 0.12438596 0.22179538 -0.08041248 0.14783975 -0.21730372 -0.30149722
0.28917366 0.048663173 -0.41467068 0.23476252 -0.0046982146 0.22413616 0.11957392 0.14593418

rec_enc1.bias_ih_l0 f4 [24]
00000000: fc52 a0be 6883 b2be c442 893e 55c4 a3bd
00000010: 180e 50be daf4 f7bd 5d67 bebe 67d7 81be
00000020: 411b 1a3d 9203 cd3e cafa 7ebd c83b edbc
00000030: 2379 b83d 205e 70be f28e 0abe e874 2bbe
00000040: 9cc2 23be 629d acbd cc84 be3d 1203 633e
00000050: 3ab6 adbb 4907 8abe 5123 4fbe eb32 8dbe
-0.31313312 -0.3486588 0.2680875 -0.07996432 -0.20317876 -0.121072486 -0.37188235 -0.2535965
0.037623648 0.40041786 -0.06225089 -0.02895917 0.0900748 -0.23473406 -0.13531092 -0.16743815
-0.15992206 -0.08428456 0.09302673 0.2216914 -0.005301264 -0.26958683 -0.20228316 -0.2757791

rec_enc1.bias_hh_l0 f4 [24]
00000000: 3b37 c93d d51a 6f3e 19cb 9bbe 1a6d 5d3d
00000010: 0480 023e 7f75 c3bd 56bc 563c 3201 bdbd
00000020: 64a8 4c3e eaef c83e 0fe1 a9be 4e0f 0fbe
00000030: 45c0 02be 517a 5ebe 36f7 823e a3ef 2cbe
00000040: 12bc bdbe 050a a9bd 3f1b 9f3d 4f03 7dbe
00000050: d113 713e da2b b0be ad6a 45be 05c6 a43e
0.098249875 0.2335008 -0.3042839 0.054059125 0.12744147 -0.09543895 0.013106426 -0.092287436
0.19986111 0.3924554 -0.3317952 -0.13970682 -0.12768658 -0.21726348 0.25579232 -0.16888289
-0.3705755 -0.08253864 0.07768869 -0.24708293 0.23542716 -0.34408456 -0.19278975 0.32182327
